data.pth (torch, 8447 bytes, 6 tensors)

l1.weight f4 [8, 121]
00000000: 843d ec3e a46f 973f 7ed6 b8be 000e 083e
00000010: 30ee ad3d 080c 783f 554a d53e e0a2 ef3e
00000020: e616 c73e 861b acbe fe12 6cbf 0619 c2be
00000030: b8d3 583f 3db7 c33e 76b4 943e d971 adbe
00000040: 3a72 783e 6291 b03d b028 873f eb20 d53e
00000050: 3f04 843e b2d3 c3be 776c 443f 33f3 17bf
00000060: db8e a13e 09c1 b83e 195e e9be 4e69 9b3e
00000070: dd4b 9d3e 4411 463f c40a 30bf 803c 85bc
00000080: 8b78 813e 87e9 8c3e e3ad bdbe c5d9 b1bd
00000090: 8f2a bd3d e704 263e ce8c 9ebe 1bd9 543f
000000a0: aa6d 31bf 38b3 ac3e 1a34 e1be 8d1a 31bf
000000b0: 98ae 6ebe 5826 31bf f917 31bf 1cbf 613d
000000c0: df32 193f 7566 353e 18c4 833e 56f9 eabc
000000d0: 0bbd 33bf 6e08 1a3f 0944 13bf 5438 1c3e
000000e0: 7b9d 923e 0948 513e e116 f43e 94e7 90be
000000f0: a49e 143e 43b9 ed3d a43e 543e a36b 673e
00000100: 0a44 373e a1cf b6be efd2 48be e6ef 103e
00000110: 22f3 873e ba1a 103f fd6c ccbe f183 593e
00000120: ff77 003f 4bfd f03e 569f 473e 3c68 313f
00000130: f8bb e83e 4330 94be d16f 0b3e c9f9 373e
00000140: 58de 433f 48ff fa3d a29b 9f3f fbc8 20bf
00000150: 5059 243f 8cd1 d93c 3c95 0c3f b974 29bf
00000160: 1855 ac3c 6f36 54be a723 49be 6a3f d93b
00000170: 2113 9c3e 09e1 163e 83a3 483e 4486 92be
00000180: 89d4 86bd dd26 5b3f cee3 db3e 994e 7e3e
00000190: 9a5d a63e 93a1 033e 9307 1e3e 4972 45be
000001a0: 5c94 be3e 50eb e43b 966c d1be a9ad 0e3e
000001b0: ea3a e6bc 8a25 753e 93e4 9e3f ffce 8bbe
000001c0: ffb1 803e 1801 e13c d7c9 c93d 15b2 bcbe
000001d0: ddec b6be 5722 1bbe ef26 f63e 0950 6c3e
000001e0: f4d2 573f 758a fdbd 0304 c13f 3699 06bd
000001f0: f3fa d1be 18a8 fc3e 864f 053f 1297 e0be
00000200: dba4 533d 48c5 a0be 1879 f23e c9ce 1fbf
00000210: 37f1 afbe d47b 87bd ee4a 323e d520 8cbd
00000220: aebb b1be 399d d8bc 5285 943e 5ee8 5f3f
00000230: bd94 c03e 297d 3abd 7901 8dbe 06af f0be
00000240: fd42 30bf 1ac0 4ebd 225b e0bd bb0e 8a3e
00000250: 0778 0dbe c8cc a73d 5453 fbbc ef31 30bf
00000260: bb88 7dbe 50e9 d7bd fe3b e03e 6786 5f3e
00000270: c9d9 143e 5dc3 92bd 2f20 bc3d 2e05 76be
00000280: fe8f 9abb 8ad8 413f 1c51 653c 7071 00bf
00000290: f204 efbe 3790 543f 4aa6 ecbe 680e f2be
000002a0: d533 f7bd ca46 923e 7b0d 3a3d c675 68be
000002b0: fbf1 0ebe 0654 3ebe 3c6e 7c3b c771 bcbe
000002c0: 4b64 cb3e e5df 59be 3f19 b23e b2f1 f73e
000002d0: 0ed1 bfbe 402b 533e 05c4 dd3c 2ec8 a93e
000002e0: 0578 8e3d eb51 063d 726b 033f 6fdd 9bbe
000002f0: 0ce9 033e 0274 0ebd a94f a9be f34d 683e
00000300: b760 723e a6da ecbe e9a6 4a3e a3dc 583e
00000310: ccb5 883e 6082 093d a3a1 673e 0dd4 e73c
00000320: 1a72 73bd c995 1dbd 33c8 5e3d 309b 963f
00000330: fdda 06bf dbbe 0c3c 5a3f 313d 697b 333e
00000340: 6b35 11bf 248b 903d 0079 9e3e 1ca3 213e
00000350: 2a8f 2cbc 70c7 a13d 3756 193e ebce 0d3e
00000360: 5be2 503f 7c40 533f a2b4 553f 66a3 70be
00000370: 3bdd 033e cb92 58bd 8d3a 333b 2a9d 013e
00000380: 7328 42bd 331c d33e 5cbb 953e 89f3 a0be
00000390: ce95 2bbd edea 903e b2ce 10bc ca3b 833f
000003a0: eea9 d3be 1b94 d93d b15e 0fbf 707c 4ebe
000003b0: 06ad 843e 4d43 923e d89a fe3e fc4c acbe
000003c0: 49d3 f7be d3ff a13f de07 cd3e b04c bc3f
000003d0: da81 09be 6f3c 05bf 534d b3be fd95 d3be
000003e0: 69b8 09bd 291b 183c fcc8 f1be 1072 683d
000003f0: e922 85be 3daa 663e 4daa 393f 8a2c f3bc
0.46140683 1.1830945 -0.36101145 0.1328659 0.08492696 0.9689336 0.41658273 0.4680395
0.38884658 -0.3361475 -0.9221648 -0.37909716 0.8469806 0.38225737 0.2904393 -0.3387592
0.24262324 0.086214796 1.0559292 0.41626677 0.2578449 -0.38247448 0.76728004 -0.5935547
0.31554303 0.36084774 -0.45579603 0.3035378 0.30721942 0.77370095 -0.6876643 -0.0162642
0.2528728 0.27521917 -0.37046728 -0.08684114 0.09236633 0.16212808 -0.309668 0.83143777
-0.6930796 0.33730483 -0.43985063 -0.6918114 -0.2330879 -0.6919913 -0.69177204 0.055113897
0.5984325 0.17714866 0.25735545 -0.028683346 -0.7021033 0.6016911 -0.5752569 0.15255862
0.28635773 0.20437635 0.47673705 -0.2830168 0.14513642 0.116076015 0.2072702 0.22599654
0.17897049 -0.35705283 -0.19611715 0.14154014 0.26552683 0.5629078 -0.399269 0.21241738
0.501831 0.47068247 0.19494376 0.69299674 0.4545591 -0.2894307 0.13616873 0.17966379
0.76511145 0.12255722 1.246937 -0.6280667 0.6419878 0.026589178 0.54915214 -0.6619373
0.02103667 -0.2072389 -0.19642507 0.006629874 0.30483344 0.14734282 0.19593625 -0.28618062
-0.065835066 0.85606176 0.4294724 0.2483467 0.32493287 0.12854604 0.15432577 -0.19281878
0.37222564 0.0069860592 -0.40903157 0.13933434 -0.028104264 0.23940101 1.2413505 -0.27306363
0.251358 0.027466342 0.09852951 -0.36854616 -0.35727587 -0.15149818 0.4807658 0.23077406
0.84306264 -0.12379924 1.5079349 -0.032860957 -0.41011772 0.49346995 0.5207447 -0.43865258
0.05167089 -0.31400514 0.47358012 -0.62424904 -0.3436372 -0.06615415 0.17411396 -0.068422
-0.347135 -0.026442157 0.29007965 0.8746394 0.37613478 -0.04552952 -0.27540186 -0.47008532
-0.68852216 -0.05047617 -0.10954882 0.26964363 -0.13815318 0.08193356 -0.030679382 -0.6882619
-0.2475919 -0.10542548 0.4379577 0.21828614 0.14536203 -0.07166169 0.09185826 -0.24025413
-0.0047168722 0.7572104 0.013996389 -0.5017309 -0.4668346 0.83032554 -0.46220618 -0.47276616
-0.12070433 0.28569633 0.045423012 -0.22701177 -0.13959496 -0.1858674 0.0038517853 -0.36805555
0.39724955 -0.21276815 0.34784886 0.48426586 -0.37464184 0.20621967 0.027071008 0.33160537
0.06956486 0.032792967 0.51335824 -0.30442378 0.12881869 -0.034778602 -0.33068588 0.22685985
0.23669706 -0.46260566 0.19790234 0.21177916 0.267012 0.0335716 0.22620253 0.028299356
-0.059434988 -0.038472924 0.054390144 1.176611 -0.526779 0.008590425 0.043273307 0.17527546
-0.56722134 0.07057789 0.3095169 0.15784878 -0.01053218 0.07899368 0.14974295 0.13848464
0.8159539 0.8252027 0.8347875 -0.23499832 0.12877361 -0.052874368 0.0027348131 0.1265761
-0.047401857 0.41232452 0.29244506 -0.31435803 -0.04189091 0.28304234 -0.0088383425 1.0252621
-0.41340584 0.10623952 -0.5600386 -0.20164657 0.25913256 0.2856697 0.4972751 -0.33652484
-0.48403385 1.2656196 0.40045065 1.4710903 -0.1342844 -0.5204534 -0.3501993 -0.4132537
-0.033623133 0.009283819 -0.4722365 0.056749403 -0.26003197 0.22525878 0.72525483 -0.029684324

l1.bias f4 [8]
00000000: 78c3 303f d25c 2f3f 3d05 463f eb3e 393f
00000010: 0983 6b3f 5022 283f fb95 3c3f 3498 3a3f
0.6904826 0.6850101 0.77351743 0.7236163 0.9199682 0.65677357 0.7366635 0.72888494

l2.weight f4 [8, 8]
00000000: f39a 863e 48a8 c43f 0831 a1be 3667 d13f
00000010: bf44 29bf c735 81be a2c3 8b3f 9bec 38bf
00000020: 8359 a33f 4e64 9b3f 8305 503f cafb a3be
00000030: a300 243e a26d e93f 6df3 143f c626 67bf
00000040: 85fb d13f 175f 2a3f 2a86 8b3d 7004 753e
00000050: 2600 81bf 2057 823f eecc 7abf cd4c 083f
00000060: 3d1d 8a3f 4b36 f2be 5a26 86be b011 df3f
00000070: 546c c33f beae d83f 38c6 fcbd 4900 69bf
00000080: 97ed b7be 8683 d53f 5afb 9abe ac76 433f
00000090: d9ac 2b3f 0da1 d8bf f680 0c3f 621b 46bf
000000a0: b4da ab3f dd0f 813e ee4e d43f 8f6a b5bf
000000b0: 7814 ce3f 2402 17bf 21ef 5abe 6b55 ab3f
000000c0: 8fc7 8cbf 67de 40bf a04d 14bf 52b9 8c3f
000000d0: a21b c03f 2770 ba3f 0cca de3f 319a 8b3f
000000e0: f0a0 20bf 787b 5f3f 8008 e33f 755c 17be
000000f0: 55b6 e7be 979c adbe 41eb ca3f 634a e83f
0.26290092 1.5363855 -0.3148272 1.6359622 -0.66120523 -0.2523634 1.0919077 -0.7223603
1.2761692 1.2139986 0.8125841 -0.32028037 0.16015868 1.8236582 0.5818394 -0.9029354
1.6404883 0.66551346 0.06812699 0.23927474 -1.007817 1.0182838 -0.9796895 0.5324219
1.0790173 -0.47307047 -0.26201135 1.7427273 1.5267434 1.6928327 -0.12342495 -0.9101606
-0.35923454 1.6680763 -0.3026989 0.76352954 0.6706062 -1.6924149 0.5488428 -0.7738553
1.3426118 0.25207415 1.6586587 -1.4173144 1.6099997 -0.5898764 -0.21380283 1.3385442
-1.09984 -0.7533936 -0.57930946 1.0994055 1.5008433 1.4565476 1.740541 1.090643
-0.6274557 0.87297773 1.7736969 -0.14781363 -0.45256296 -0.3390853 1.5853044 1.8147701

l2.bias f4 [8]
00000000: 1244 923e 6157 03bf 2929 4d3f 44e0 373f
00000010: 7d71 3e3f bc9f 363f 16ab 0e3f 04fc d93e
0.2856756 -0.51305205 0.8014093 0.7182658 0.7439192 0.71337485 0.55729806 0.42575085

l3.weight f4 [17, 8]
00000000: 548b 9e3e 6e03 fa3e bbac 543f 59be 0d3f
00000010: 03ba a6bf 9ce5 abbf 5d2d 09bf d17f 01c0
00000020: 7bfb f6bd 6dc1 043f adf7 d03e 8f4b b3bf
00000030: bfa3 82bf 825b d53e 916a eabf 77a5 483e
00000040: 9bf6 14c0 c9a5 083f a91e 8fbf ce35 41bf
00000050: 65b0 27c0 2590 503f 4013 44bd d3db ea3e
00000060: 9b15 03c0 e2f0 863e 6b36 733f d8a7 023f
00000070: d81c dabf fad6 533f d268 6fbf c15e 6ebf
00000080: be84 1cc0 87dc 00c0 dc2b 8bbf 675c 8fbe
00000090: f270 623f 84ec 2a3f 2d6c dc3e a35b 723e
000000a0: 55a6 b5bf 4550 1cbd fb2e f9bd 538d 333f
000000b0: b76c ddbf f6ef 013e a62d 0d3f ca81 13c0
000000c0: 6c90 0c3f 5fbb 22c0 186c a9bc 0384 9dbe
000000d0: c5c1 83bf aa72 d4bf 2221 2b3f b7ee 143f
000000e0: 6a39 eabe cfe6 15bd ae8d 883f b738 dabd
000000f0: 5867 23c0 2162 11c0 0a70 b23e 7890 d63d
00000100: e871 353d 92f3 3b3e 34e4 cdbf c5a7 113f
00000110: 4018 38bf d0ea dcbf 2b43 d23e 597f babf
00000120: d6be b7bd aa97 abbf 5bc8 84bf 873c e9bf
00000130: 30c9 94bf 9ca7 903e c719 083e 4564 803f
00000140: 1c3b a8be b9f4 74be d20e bfbf fc05 fa3e
00000150: a8a8 1fc0 b385 07bf 6fd8 993e 521f fd3e
00000160: 52eb 13c0 12b0 83bf a798 563f c8dc c5bf
00000170: d80f 00c0 084f 333f 8f90 a0bf ddb4 703f
00000180: d7df 1a3f 6422 053e f211 8bbf e6d3 82be
00000190: dac7 313f 0686 77bf 496d 0cbd 66a3 763d
000001a0: 74b7 f73e 6cad 333d 9762 27be 8210 6abf
000001b0: 20cc 3c3f a7f1 01be df37 19bf 6579 1e3e
000001c0: 3e9b bd3e 7bba 403f cd48 8d3e 1cc8 1fbe
000001d0: 189d 88bf 3cc0 a8be c336 20bf 4e37 fcbe
000001e0: 9a86 9e3e 9995 17c0 e7a1 f8bd 6f97 e03e
000001f0: 20b1 3c3f f5ae 243e f5b5 813e 7a21 0dc0
00000200: 3317 273f e5dd 9bbe 31e0 233f 85c4 aa3e
00000210: 8629 663f 02d4 92bf 93d4 e8bf e45d 99bf
0.30965674 0.48830742 0.83076066 0.5536857 -1.3025516 -1.3429446 -0.53584844 -2.0234263
-0.12059685 0.51857644 0.40813962 -1.4007434 -1.0206221 0.41671377 -1.8313771 0.1959437
-2.3275516 0.5337797 -1.1181232 -0.75472724 -2.6201413 0.8146995 -0.04786992 0.45870838
-2.0481937 0.26355654 0.9500491 0.5103736 -1.7040052 0.82749903 -0.9351932 -0.93113333
-2.445602 -2.01346 -1.087276 -0.28000185 0.8845359 0.66767144 0.43051282 0.23667769
-1.4191386 -0.03816249 -0.12167164 0.7013752 -1.7298802 0.12689194 0.5514778 -2.3047967
0.5490787 -2.5426862 -0.020681426 -0.3076478 -1.0293509 -1.6597493 0.6684743 0.5817675
-0.45746928 -0.03659707 1.0668237 -0.10655349 -2.5531826 -2.2716143 0.34851104 0.10476774
0.044298083 0.18354633 -1.6085267 0.5689662 -0.71912 -1.7259159 0.4106687 -1.4570113
-0.08971946 -1.3405659 -1.0373644 -1.8221596 -1.1623898 0.28252876 0.13291083 1.00306
-0.32857597 -0.2392148 -1.4926398 0.4883269 -2.494669 -0.52938384 0.30047938 0.49437958
-2.3112378 -1.0288107 0.8382668 -1.5458002 -2.000967 0.7004247 -1.2544116 0.94025975
0.604978 0.130014 -1.0864851 -0.2555229 0.69445574 -0.9668888 -0.03428391 0.060214423
0.4838215 0.04386656 -0.16346203 -0.9143144 0.7374897 -0.1268984 -0.5985088 0.15475996
0.37032503 0.75284547 0.27594605 -0.1560368 -1.0672941 -0.32959163 -0.6258356 -0.49260944
0.30962068 -2.3685057 -0.121402554 0.43865535 0.7370777 0.16082366 0.25334135 -2.2051682
0.65269774 -0.3044273 0.64013964 0.33353058 0.8990711 -1.147095 -1.8189873 -1.1981778

l3.bias f4 [17]
00000000: 3b40 483e 6393 14be d60f c8be 6185 7d3e
00000010: 3d6f c73d f6d2 30bd 4e46 8d3e 3a6d 773e
00000020: b639 efbe 4840 a6be c73f 043e 2513 f43e
00000030: 5168 5b3d d1e0 bcba 6a1d 23bf 97ad c03e
00000040: 3aa9 8c3e
0.19555752 -0.14509349 -0.39074582 0.24757911 0.09738014 -0.043169938 0.275927 0.2416276
-0.46723717 -0.32470918 0.12914954 0.47670856 0.05356628 -0.0014410262 -0.6371676 0.3763244
0.2747286
